slr/model/slr_model.tflite (tflite, 7440 bytes, 6 tensors)

arith.constant f4 [24, 10]
000000 76 ff e6 bf 8f a1 d0 bb 62 c6 21 bf 51 75 cc bf
       -1.804671 -0.0063669155 -0.63193333 -1.5973302
000010 2c 2b 82 bc 01 eb 20 bf d5 45 07 3f e6 1c b8 be
       -0.015889727 -0.6285859 0.5284093 -0.35959548
000020 04 12 63 3e 7f af fa 3e 00 ff ae bd 46 96 52 be
       0.22174841 0.48962018 -0.08544731 -0.20565137
000030 15 ed d4 bf 75 7b 98 be f8 04 c7 be 17 dc 47 3f
       -1.6634852 -0.2978169 -0.38870978 0.78070205
000040 c0 25 9f bc 11 c1 0b 3e 45 30 19 bf 75 0a 5d be
       -0.01942718 0.13647868 -0.5983928 -0.2158602
000050 a7 d6 ec be 4f 20 17 3f 55 1d 90 be d8 84 f5 be
       -0.46257517 0.59033674 -0.2814738 -0.47952914
000060 98 c2 57 bf 69 d7 17 3f 3c 18 de 3e f4 5d 00 bf
       -0.842813 0.59313065 0.43377864 -0.5014336
000070 3a 16 f7 be 74 c6 34 bf 17 a7 74 be cf f3 c8 be
       -0.48259145 -0.70615315 -0.23891865 -0.3924851
000080 e0 f7 12 c0 5e 07 74 bf 14 ef 88 3e 2f 87 d0 be
       -2.296379 -0.9532374 0.26744902 -0.40728137
000090 77 39 de be a9 58 89 3e 5c 6c e5 3e ed 27 c6 3e
       -0.43403217 0.26825455 0.44809234 0.38702336
0000a0 ed d9 61 3e ad 07 a9 bf 85 55 d2 be c9 83 5a bf
       0.22055788 -1.3205467 -0.4108087 -0.8535734
0000b0 9d 53 39 bf c5 24 f7 3d bb ad 4b 3e f1 89 8f bf
       -0.7239321 0.1206756 0.19890492 -1.1213971
0000c0 44 0e 88 3e a1 97 d4 3e 3e a7 86 bf 23 46 92 be
       0.26573384 0.41521934 -1.0519788 -0.28569135
0000d0 7d 33 b0 be 45 e2 0c bf 47 fb 7b 3e 2c c5 14 3f
       -0.34414282 -0.5503276 0.24607573 0.5811336
0000e0 9f f8 22 3f 78 7d 04 bf e5 a3 84 bf 45 87 2a be
       0.63660616 -0.5175395 -1.0362517 -0.16653164
0000f0 b4 6d 1a 3e 1d 71 10 3f e9 c7 66 3e 8b d0 b9 bc
       0.15080911 0.564226 0.22537197 -0.022682449
000100 ad 83 61 bf e4 51 43 bf d8 09 9c 3d a9 4b 92 3e
       -0.88091546 -0.7629683 0.07619065 0.2857335
000110 91 bd 4f bf ac 5d a5 bf 8b 64 04 3e ec 92 06 3f
       -0.8114863 -1.2919211 0.12928979 0.52567935
000120 20 af 75 3e ca 2a f4 3b ae e0 d4 be c6 52 5f bf
       0.23992586 0.00745139 -0.41577667 -0.8723568
000130 bc 0f 96 bc c2 6b bb 3e 7f 78 72 bf 00 eb 86 bf
       -0.01831805 0.3660565 -0.9471511 -1.0540466
000140 b1 86 99 bd a1 30 80 3e 49 61 93 bf 2a af 64 bf
       -0.074963935 0.250371 -1.1514064 -0.8932978
000150 a0 7e 7b be f5 e4 ee bd 2e 2c 06 3f 13 53 0f bf
       -0.24560022 -0.11664764 0.5241116 -0.55986136
000160 f3 26 a8 bf 5f 25 f8 3e 64 c7 dd 3e ad 42 46 c0
       -1.3136886 0.48466012 0.43316185 -3.0978196
000170 bc b2 0e 3f 76 99 3b bf 9b 42 00 3e 75 51 7d bf
       0.55741477 -0.7328104 0.12525408 -0.9895242
000180 02 3e a5 bf 4a a0 a0 bf b5 4c 40 3f e5 1f 3d 3e
       -1.2909548 -1.2548916 0.75117046 0.18469198
000190 d7 25 3a be d3 b4 01 3f b1 6d 74 bf c0 37 53 bf
       -0.18178497 0.5066654 -0.95479876 -0.8250694
0001a0 dc ba 45 3f c6 29 19 bf 48 1c 50 be 67 57 98 bd
       0.7723825 -0.59829366 -0.20323288 -0.07438546
0001b0 fa 6f aa bf d8 b9 11 bf 97 0c 51 3f 47 b8 df bf
       -1.3315423 -0.569242 0.81659836 -1.7478112
0001c0 1b de 9c be ca dc b7 bf 97 42 15 c0 59 46 5a 3e
       -0.30638203 -1.4364254 -2.3321893 0.21315898
0001d0 ca 5d c6 3c ba 28 4b bf 27 5b a5 3e 64 e9 f2 3e
       0.024214644 -0.7935902 0.32296106 0.47443688
0001e0 76 53 ee 3e f9 19 a7 bd f8 b2 48 bf 1a 3a 5d c0
       0.4654805 -0.08159251 -0.78398085 -3.4566712
0001f0 e1 5a 1d c0 dc 0f 45 be 09 97 a3 bd 3a a5 29 bf
       -2.4586718 -0.19244331 -0.07987792 -0.6626774
000200 c5 e2 d5 3e 6d 29 3f 3f 21 12 ab bf 30 af 50 bd
       0.41774574 0.74672586 -1.3364908 -0.05094832
000210 1f c6 4b bd e6 7d 43 bf fa 3f 45 bf 63 51 39 3f
       -0.04974949 -0.7636398 -0.77050745 0.7238981
000220 c1 dc f0 3e c6 bf 32 3e c8 0e ff be 2f 60 92 3d
       0.47043422 0.17455968 -0.49815965 0.07147252
000230 b4 f9 3a 3e 16 76 a1 bf fa 32 18 3e 28 e3 2f bd
       0.18259317 -1.2614162 0.14863196 -0.042941242
000240 b0 30 95 3e e0 fc b7 bf 41 52 71 bf 22 79 5b bf
       0.29138708 -1.4374046 -0.94266135 -0.8573171
000250 e8 eb 31 3f c2 c4 23 c0 4c 68 63 be 32 95 8e bd
       0.6950059 -2.5588841 -0.22207755 -0.069620505
000260 a0 a2 72 3e d8 d3 27 3f de 9f 54 3e 95 a9 2c bf
       0.23694849 0.6555762 0.2076411 -0.6744626
000270 d6 31 c0 be dd 21 04 bd 14 2a 42 bd 70 a9 a2 bf
       -0.37538022 -0.032258857 -0.04740341 -1.2707958
000280 a9 f9 96 3e 43 1d c9 bf 48 d3 9e c0 c8 25 e8 bf
       0.2948735 -1.5712055 -4.963291 -1.813653
000290 60 96 45 bd 28 e7 30 3f 26 61 a0 c0 c0 6f 38 c0
       -0.048239112 0.69102716 -5.011859 -2.8818207
0002a0 9f 6f 02 3f 7c 2c 2d 3e 08 bd 33 bf 55 aa ee be
       0.5095157 0.169115 -0.70210314 -0.46614328
0002b0 8b 54 01 bf 4a 4e 9d bf 4a 0d 47 be 37 24 1e bf
       -0.5051963 -1.2289517 -0.19438663 -0.6177401
0002c0 42 1e c2 3e 1d b0 cc be 96 44 1c 3f f5 d7 e9 3e
       0.3791371 -0.39978114 0.61042154 0.45672575
0002d0 16 f6 45 3e 00 bc b6 3e 63 ce 3c 3e de 52 e2 3c
       0.19332156 0.35690308 0.18438105 0.027627405
0002e0 e0 d5 4b bf e0 c3 95 bf 93 02 b3 be 09 9d e0 3e
       -0.7962322 -1.1700401 -0.349629 0.43869808
0002f0 76 60 83 bf 57 79 d2 3e 14 86 dd 3e 97 04 90 3d
       -1.0263813 0.411082 0.43266356 0.070321254
000300 2a ab 0f c0 41 af 63 c0 cb ad 8f 3e 99 27 27 3f
       -2.244822 -3.5575716 0.2806228 0.65294796
000310 68 16 81 c0 26 02 85 3e 7b 70 03 bf f2 0e 69 be
       -4.033985 0.25978202 -0.51343507 -0.22759607
000320 f1 6e f7 3e dd aa 25 3e b3 16 94 be 42 d7 ee bf
       0.4832683 0.1617846 -0.28923568 -1.8659441
000330 37 2d f5 3e 5e 3f 34 3e f5 62 43 c0 0d ee c1 be
       0.4788606 0.17602298 -3.0529149 -0.3787693
000340 2b 69 14 3f 61 7d e0 bf a3 d3 15 3f 0f a6 0d c0
       0.57972974 -1.7538263 0.58526057 -2.2132604
000350 9e 6c 97 bf 14 fb 5d bf 6b 9e 04 3f e0 e1 02 3f
       -1.1830022 -0.8671124 0.51804227 0.5112591
000360 1a 4a 30 be bf e2 09 bf 93 09 0e bd b4 bb c0 bf
       -0.17215768 -0.5386161 -0.0346771 -1.5057282
000370 59 d2 81 be b8 65 7c 3e b8 f2 8a 3d 60 ec 80 3e
       -0.25355795 0.24648178 0.06784576 0.2518034
000380 d5 46 8a bf 0c 39 89 be 8b 1a c9 bf 05 49 f5 3e
       -1.0802866 -0.26801336 -1.5711225 0.47907272
000390 1d be f5 be 93 db c0 3e fb d3 e6 bf aa e2 07 bf
       -0.47996607 0.37667522 -1.8033441 -0.53080237
0003a0 83 86 98 bc ad c8 92 be d9 6c 89 3d d7 2d e3 be
       -0.018618828 -0.28668728 0.06710214 -0.4437091
0003b0 9f 40 54 3f 63 9b 26 3e 10 20 dc be 30 1d 31 3e
       0.82911104 0.16270213 -0.42993212 0.1729629

arith.constant1 f4 [10, 20]
000000 a8 41 26 be d9 f2 4c bd 6c dc 37 bd 2c 4f c0 bd
       -0.16235983 -0.050036285 -0.044887945 -0.09390101
000010 38 b3 a1 3f 43 d8 8c be cc d6 52 bd ce da af be
       1.2632818 -0.27508745 -0.051474378 -0.34346622
000020 e9 a3 9e be f7 51 bb 3c 7c 03 f6 be 71 e4 60 be
       -0.3098443 0.022866232 -0.48049533 -0.21962143
000030 67 74 86 be 3b c1 01 bf 32 92 a7 3f 96 4f d9 be
       -0.26260683 -0.5068547 1.309149 -0.42443532
000040 17 b3 03 bf 05 14 46 bd 53 a7 89 3f eb d7 8b bc
       -0.51445144 -0.048358936 1.0754188 -0.017070731
000050 24 1c 2d be 4b dc 93 3e c9 0f 40 bf 56 cc 20 bf
       -0.16905266 0.28879008 -0.75024086 -0.6281179
000060 07 14 fb 3c b6 4d c5 3d 21 7d 66 3e 23 f8 c7 3f
       0.030649198 0.09633963 0.2250867 1.56226
000070 81 69 2b 3f 7b ab 97 3f 46 fd 5f be 07 0c 9d 3f
       0.6695786 1.1849207 -0.2187396 1.2269295
000080 65 ba e6 3f 64 ab 6a 3f b4 9c 3a 3f db db e6 3f
       1.8025633 0.9166777 0.7289536 1.8035845
000090 02 ee 06 3f a0 b2 61 3b 42 25 33 bc fa 1e 25 bd
       0.5270692 0.0034438744 -0.010934176 -0.040312745
0000a0 4e 73 e1 3f b2 80 83 3f b8 2e 16 bd 4e a5 73 3e
       1.7613313 1.027365 -0.03666565 0.23793527
0000b0 51 35 4b bd f5 65 87 3f 30 d6 0f 3f b2 64 0f 3e
       -0.049611393 1.057799 0.561862 0.14003256
0000c0 93 0f bc 3f 99 c4 13 3e 39 bd 71 be ed 69 ab 3e
       1.4692253 0.14430465 -0.23607339 0.33479252
0000d0 5a 59 ab 3e 07 30 2c 40 b0 29 b8 3f c6 7d f8 be
       0.33466607 2.6904314 1.4387722 -0.48533458
0000e0 19 9d 0d 3f e5 da 62 bf 80 b9 8f 3f c6 3f 70 3f
       0.55317837 -0.88615257 1.1228485 0.9384731
0000f0 dc b6 98 bd 08 2d 2c be e6 a2 3d 3f f0 0b 8d 3f
       -0.07456753 -0.16814053 0.7407669 1.1019268
000100 d6 c9 9d 3f ee bb 94 3e 61 0e 07 3e e2 88 68 3f
       1.232722 0.2904963 0.13189079 0.90833867
000110 83 9c 98 3f 93 f6 ad 3e 8a 53 4b 3f 1b e0 be be
       1.1922764 0.33977184 0.79424345 -0.37280354
000120 04 46 0e bf e4 1c e6 3e 37 ea c4 be 42 54 40 bf
       -0.55575585 0.44943917 -0.38459942 -0.7512857
000130 eb 5a 23 3f 4e a8 35 3f 48 9e 0a 3f 85 89 59 bd
       0.63810605 0.7095994 0.5414777 -0.053109664
000140 4d f6 30 be e9 5c 6f be bc c4 32 bf 00 23 95 bd
       -0.17281456 -0.23375286 -0.6983144 -0.07282066
000150 71 95 9f 3d b7 c1 0b 40 f3 7b 38 3f 0c f0 d3 3d
       0.077921756 2.1836984 0.7206413 0.1034852
000160 d1 f3 64 be 70 72 00 be 6d a4 1b 3e 3f 0e 2c 3f
       -0.22358634 -0.12543654 0.15199442 0.6720924
000170 2f 8b 6b 3d ac 23 ce 3f fa a5 77 be 5e 16 c6 bd
       0.057505783 1.6104636 -0.24184409 -0.09672235
000180 35 ca 04 3e 11 6f 52 be 2c a9 f7 3f 80 e9 09 be
       0.12967761 -0.20550181 1.9348502 -0.1346798
000190 a4 b4 c6 be 0b 96 45 3f 49 d8 2d c0 ff 6f 4b 40
       -0.38809693 0.7718207 -2.716326 3.1787107
0001a0 f0 d1 12 3f 27 9d 88 3e 2d 18 6a 40 3e d0 31 bf
       0.5735159 0.26682398 3.6577256 -0.6945838
0001b0 a7 f7 26 c0 0c 60 12 3f 18 46 81 3c 89 f1 f5 bd
       -2.6088655 0.57177806 0.015780494 -0.1200896
0001c0 e4 d4 88 3e e5 37 4e bf 60 9e 1c 3f 16 20 1e 3e
       0.26724923 -0.8055404 0.6117916 0.15441927
0001d0 ab 06 dd bf 52 64 5c 3f d5 a1 a9 3e 1e 8c 3b bd
       -1.726766 0.86090577 0.3313128 -0.045787923
0001e0 05 3a c9 3e 64 68 21 40 28 53 a1 3d 45 ab d8 3f
       0.39302078 2.5219965 0.07877189 1.6927267
0001f0 80 8f 25 3d f5 06 6c 3e fc 1c 96 bd e1 18 7b 3f
       0.040420055 0.23049529 -0.07329747 0.9808484
000200 48 80 2a 3f fd 98 6d 3d d6 cd 51 3b 78 c6 fa 3f
       0.6660199 0.05800723 0.0032013557 1.9591818
000210 16 ed 51 3d b6 9d dd 3e b3 f1 bb 3d 3c 62 e1 3d
       0.051251493 0.43284386 0.0917696 0.11005065
000220 42 83 5a bf 59 85 22 40 43 bf 22 3e 0d 8f bd 3f
       -0.85356534 2.539389 0.15893273 1.4809281
000230 4b 2a 54 3f 66 36 4c bf cf 72 0f 3f c2 02 e4 3e
       0.82877034 -0.79770505 0.5603456 0.44533354
000240 c3 0d 80 bc 17 0a 7e 3d 65 6e c7 be 17 e5 9d be
       -0.015631562 0.06202134 -0.38951412 -0.30838844
000250 d8 74 89 bd c3 7b 41 3f 4b ab 0c bf 6d 7f fb 3e
       -0.06711739 0.7557947 -0.5494887 0.49120656
000260 4f 55 4e 3f dd b7 21 3f af 66 fe 3e e1 6a 7e 3f
       0.8059892 0.6317118 0.49687716 0.99381834
000270 43 45 9f bd db 07 c0 3d 18 dc b1 3e 11 f0 97 be
       -0.077768825 0.09376498 0.3473823 -0.29675344
000280 ec f0 00 3f 4e cc 2a 3f 9d be 95 3e 38 ab 08 3d
       0.5036762 0.66717994 0.2924699 0.033366412
000290 5e 2b c7 3f 60 f8 18 3f 3f dc ca 3c fa 5e 96 bf
       1.556011 0.5975399 0.024763225 -1.1747735
0002a0 28 7c a1 bf f6 29 b8 bf 97 c7 7f 3e f3 57 36 be
       -1.2616014 -1.4387805 0.24978481 -0.17806987
0002b0 9c 64 a4 3e 99 7d f8 be ab bd 4c be 9a 9d cb 3d
       0.3210801 -0.48533323 -0.19994228 0.099421695
0002c0 46 a5 06 3f 18 dd 31 3f 78 d9 21 3f d9 0a ac 3d
       0.5259594 0.6947799 0.63222456 0.084005065
0002d0 77 fc 2b 40 18 20 a0 3f 30 49 09 c0 6b 6c a6 bf
       2.6872842 1.2509794 -2.145092 -1.3001837
0002e0 73 a7 fb ba 3d 06 8e 3d f7 47 dc be d5 3c 7e 3e
       -0.0019199684 0.069347836 -0.43023655 0.24827893
0002f0 8c 02 04 be fe c6 0e 3e 50 45 9a bf 23 cd 5c be
       -0.12891597 0.13943097 -1.2052402 -0.21562628
000300 b4 19 36 3e 68 b3 2f c0 36 e5 12 3e ab 03 32 3e
       0.17783242 -2.745325 0.1434525 0.17384212
000310 89 8e c7 bf 7d 20 96 3e e3 f4 49 bd 58 e1 24 40
       -1.5590373 0.29321662 -0.049305808 2.576254

arith.constant2 f4 [24]
000000 a7 55 b0 3d a1 fb 0c 3f 46 68 d3 bf c9 2a 4b 3f
       0.08610087 0.55071455 -1.6516197 0.7936216
000010 a9 8e e4 be 1d 54 2c 3d 38 ce 3e bf fa 13 85 bf
       -0.4464009 0.042072404 -0.74533415 -1.0396721
000020 a2 9b 87 3f 97 ae 0b bf 2b c2 16 40 49 17 5c be
       1.059437 -0.5456328 2.355601 -0.21493258
000030 1d 16 ed 3e a8 2a c2 bf 4d b5 c1 3f e8 57 3a c0
       0.46305934 -1.5169268 1.5133454 -2.9116154
000040 0c 8d ac 3f 3d b9 b4 be 9d da 01 bf 72 19 28 3f
       1.3480544 -0.35297576 -0.507242 0.65663826
000050 db 77 3c be 27 08 20 3f e5 9c cd be 0d 5c 98 be
       -0.18405096 0.6251244 -0.40158764 -0.2975773

sequential_1/dense_1_2/BiasAdd/ReadVariableOp f4 [10]
000000 98 0e e2 3f 10 4a 93 3e de 24 01 bf 9f 1d 9a be
       1.7660704 0.28767443 -0.5044688 -0.30100724
000010 cb dd ae 3f ba 69 d3 3f 75 13 04 bc 74 c9 bd 3e
       1.3661436 1.651664 -0.00806128 0.3706776
000020 64 ba 09 40 92 63 e2 3f
       2.1520014 1.7686636

sequential_1/dense_1/BiasAdd/ReadVariableOp f4 [20]
000000 0c de 92 bf a5 03 16 c0 f0 24 81 3f fd b5 94 bf
       -1.1474013 -2.3439724 1.0089397 -1.1618038
000010 4a 74 c3 bd 14 92 e4 3e ed 62 bf bf 40 77 bb 3e
       -0.09543665 0.446427 -1.4952065 0.36614418
000020 46 ec 2c bd 01 20 a0 bd 61 1e 28 3f df ae a3 be
       -0.042217515 -0.07818604 0.65671355 -0.31969354
000030 95 ea 3d be 08 28 b0 bb db f4 ca 3e 08 29 4a 3d
       -0.18546517 -0.005375866 0.39639935 0.049355537
000040 6d 97 26 3f d6 70 03 c0 44 c8 2a 3f ce 21 cf bf
       0.6507481 -2.053762 0.6671183 -1.6182191

sequential_1/dense_1/MatMul f4 [20, 42]
000000 e4 fa 96 be d0 90 05 3e 2c 2d f4 3e 71 ad 0d c0
       -0.2948829 0.13043523 0.47690713 -2.213711
000010 0c 05 92 3e 3c fa 43 bf 79 8e d3 3d d4 17 0d bf
       0.28519475 -0.765537 0.10329909 -0.55114484
000020 80 53 83 be 4c 8b a7 bf 5c e1 22 3e d4 97 7d bd
       -0.25649643 -1.3089385 0.1590628 -0.061912373
000030 4f 0e 91 bd dc d8 44 bd 01 e4 3d be bc 08 e0 bc
       -0.07082807 -0.048058376 -0.18544008 -0.027347915
000040 ce c6 65 be 1e 94 d7 bb a3 6f 66 3e ae 94 1c 3c
       -0.22439119 -0.0065789362 0.22503524 0.009556932
000050 b4 ba d4 3d 0a b1 6d 3d 03 4d 22 3e 48 3f 85 3d
       0.10387173 0.058030166 0.1584969 0.065062106
000060 30 8c 97 3e 61 12 f8 3c 3c c9 9a 3e 4e ad 59 3d
       0.29599142 0.030282201 0.30231655 0.05314379
000070 94 0b 2f 3d 02 41 8a 3d d2 4a c4 bc 5f 39 d8 3d
       0.04273565 0.067506805 -0.023961458 0.10557818
000080 94 83 b6 3d 0d d1 82 3d b5 16 5f 3e 1a 12 d5 3d
       0.08911815 0.063875295 0.21786006 0.10403843
000090 c6 11 2a be 75 55 d5 3d 5f 79 71 bd de 19 f8 3d
       -0.16608343 0.1041669 -0.05895364 0.12114309
0000a0 23 7d 58 3e fc 4b f3 3d 0c 0c 12 be 80 bb 03 be
       0.21141486 0.11879727 -0.14262408 -0.12864494
0000b0 53 16 58 bf a7 20 3b bf 32 c0 d4 be e9 68 a4 be
       -0.84409064 -0.730967 -0.41552883 -0.3211129
0000c0 c3 df 8e be 3b 5f 30 be 9a 91 54 be 1e 0f cd bd
       -0.27905092 -0.17223828 -0.20758668 -0.10012649
0000d0 76 30 27 be 03 9d 17 be e9 d1 8b be 3d 36 8c bd
       -0.1632708 -0.14805989 -0.27308586 -0.06846283
0000e0 80 77 b2 be 51 b9 46 3d d5 6e 00 bf e7 be d2 3d
       -0.34856796 0.048516575 -0.50169116 0.10290318
0000f0 48 59 46 be 7d af fb bd 9a 0c 41 3e 9f 3a f2 bd
       -0.19369996 -0.12289331 0.18852463 -0.11827587
000100 46 ef 11 bf 04 b2 b3 bd 95 78 a0 bf ef 13 5f bc
       -0.5700573 -0.08774188 -1.2536799 -0.013615592
000110 19 90 89 3f bd 18 3e be a7 56 76 3f 03 2b 0c be
       1.07471 -0.18564124 0.9622597 -0.13688283
000120 d4 82 b7 3e 91 1e 26 be 39 8e cc be 1a f9 fc bc
       0.35842 -0.16222598 -0.39952257 -0.0308805
000130 53 40 4b 3f 9a cb 4e be ae f8 7b 3f f4 36 3e be
       0.79395026 -0.20194855 0.9842633 -0.1857565
000140 3c a5 8f 3f 61 e3 84 be 11 59 92 3f 33 22 eb bd
       1.12223 -0.25954726 1.1433431 -0.11481132
000150 93 35 8a be 3a 08 84 3e 8e b2 51 bf 37 9f 52 3f
       -0.26994 0.25787526 -0.8191308 0.8227419
000160 74 37 57 be 59 aa 15 3f 80 ef b0 be 43 4c 5f 3f
       -0.21017247 0.58463055 -0.34557724 0.8722574
000170 7b af 19 be 60 8c ca 3f 44 da 1c bd 43 87 18 3d
       -0.15008347 1.5824089 -0.03829409 0.03723837
000180 bb 62 44 3d 70 85 1c 3f 82 2b 88 bd 7c 15 01 3f
       0.04794572 0.6114111 -0.066489235 0.5042341
000190 e4 d3 8a bd 05 bb 6d 3f 3a 74 81 3d db 6c ed 3d
       -0.06778696 0.92863494 0.063209966 0.11593028
0001a0 b9 bd 41 3d 6d 4e 02 3f f8 97 24 be 34 48 0b 3f
       0.047300074 0.5090092 -0.16073596 0.5440705
0001b0 5c f6 39 be 6e c6 c7 bd d4 a9 2f 3e 66 90 4f 3e
       -0.18160385 -0.09754644 0.17154628 0.20269927
0001c0 ab 3c 05 3e 8e 7b 44 3f f4 e4 4e bd 4e e6 49 3f
       0.13011424 0.7675103 -0.050511315 0.7886704
0001d0 57 6a d9 3d 3e a4 32 3f 30 df a1 3e d2 47 07 3f
       0.10615986 0.69781864 0.3161559 0.52843964
0001e0 2c dc 88 3b ed db a4 3f 4e fb 3a 3e 42 39 b5 3f
       0.004176637 1.2879616 0.18259928 1.4158099
0001f0 c8 12 02 3e 42 87 ae 3f fe e3 3d be 88 48 dc bd
       0.12702477 1.3635027 -0.18544003 -0.10756022
000200 da f5 4c 3e 74 91 8f 3d 42 cc 12 3e 37 24 e0 bd
       0.2001566 0.07010165 0.1433573 -0.109444074
000210 bb 8a 20 3e e6 97 28 bd 8a e8 60 bd 88 0b 2f bd
       0.15677921 -0.041160487 -0.054909267 -0.042735606
000220 40 7f 4c 3e c1 7c 19 3d dd 09 20 3e 57 84 9f 3c
       0.19970417 0.03747249 0.15628763 0.019472284
000230 a6 88 15 3e a7 3a 3d 3d ca d6 b5 3d 26 d4 87 3d
       0.14602908 0.046198513 0.088788584 0.06632261
000240 f7 7d b7 3e 05 04 66 3d 23 97 64 3e b7 24 d2 3c
       0.3583829 0.056156177 0.22323279 0.025652273
000250 d8 1f 01 bd 34 b8 1e 38 c0 7b 49 be 50 34 5e 3d
       -0.03152451 3.7841688e-05 -0.19676113 0.054249108
000260 7e b2 80 be f1 bf 70 3c f0 84 fe bd 2d 76 2e 3d
       -0.2513618 0.0146942 -0.124276996 0.04259317
000270 f0 86 88 be a4 b1 64 3d 52 84 21 bf bc 27 1c c0
       -0.2666545 0.055833474 -0.6309253 -2.4399252
000280 e0 d0 d0 bd 5b 25 3d 3c 60 92 58 bd bf a4 75 3d
       -0.1019609 0.011544551 -0.05287397 0.059971567
000290 9b 15 2c 3e 4c 45 03 3d c5 e6 35 3f 19 06 b6 3d
       0.16805117 0.03204851 0.7105525 0.08887882
0002a0 78 2e e4 3d dc 11 45 3e 7e cd 7f 3e ca a5 6d be
       0.11141676 0.19245094 0.24980733 -0.23207775
0002b0 c3 31 b9 3e ca fb 3f be 75 34 97 3f b3 04 5d 3c
       0.36170778 -0.18748394 1.1812884 0.01348989
0002c0 45 47 6e 40 a2 eb 50 3d 48 a7 ac be e0 b3 da bc
       3.7231 0.051005967 -0.33721375 -0.0266971
0002d0 05 57 45 be 34 7f 23 bd de 5a 54 3d d2 ec 29 bd
       -0.19271477 -0.039916232 0.05184447 -0.041485615
0002e0 8a 82 8a 3e 42 d0 2c bd 56 2a 94 bf 61 b8 47 bc
       0.27052718 -0.042190798 -1.157542 -0.012189955
0002f0 cc 14 dc be 44 ae 34 bd ed 97 74 3f 54 1d 8c bd
       -0.42984617 -0.044111505 0.9554432 -0.068415314
000300 49 6f d5 3f 00 39 96 bd 71 1d 61 bf c7 c9 a9 bc
       1.6674587 -0.07335091 -0.8793555 -0.020726098
000310 c7 11 51 3e 4e 77 a2 bd ff df ee 3f 77 3d 85 be
       0.20416938 -0.07932912 1.8662108 -0.26023456
000320 3f 4c 21 40 04 b8 9b be 20 01 2d be 18 3a a7 3c
       2.5202787 -0.3041383 -0.1689496 0.020413443
000330 86 f3 e4 be 7a bb 81 bb e5 50 2e bf bc b8 b6 3c
       -0.44717044 -0.0039591165 -0.68092185 0.022304885
000340 c1 33 72 bf ca de 99 3c 20 1d 4b 3e 78 9e 5d 3e
       -0.9461022 0.018782992 0.19835329 0.21642482
000350 2d e4 6a 3e 9b c3 62 3d 34 90 cf 3d 5c 54 e6 3d
       0.22938605 0.055362325 0.101349264 0.11246559
000360 94 67 1a bf 98 af 90 3d b2 f5 df bf 55 7b c4 3c
       -0.603143 0.07064742 -1.7496855 0.02398459
000370 d4 37 3d bd 2e 9d ea 3c 29 c8 87 be 76 f2 69 3c
       -0.04619582 0.028639402 -0.26519898 0.014278999
000380 9e 01 d0 be 32 b3 1c bc eb 8d 0a bf df ef 47 bc
       -0.40626234 -0.009564208 -0.541228 -0.012203186
000390 0f a4 0c be 55 96 b3 3c 77 c7 be 3f ec 16 ec 3c
       -0.13734458 0.02192227 1.4904622 0.028819524
0003a0 22 3c dc 3f 93 0c 02 3e 98 85 d1 3f c3 64 09 3e
       1.7205851 0.12700109 1.6368895 0.13417344
0003b0 97 2e 0f bc fd 15 73 3d 80 d3 e1 3e 83 a7 b1 3d
       -0.008739135 0.05934714 0.44106674 0.086745284
0003c0 74 1f 51 3f 5a c6 08 3e 05 db ed 3f 71 a1 ef 3d
       0.8168862 0.13356915 1.8582464 0.117007144
0003d0 6c 0b 42 bd d5 9e 41 3d 0b 67 95 3d 4e ae a1 3d
       -0.047374174 0.047270615 0.072950445 0.07894574
0003e0 58 27 c4 3e 40 1e 17 3e 28 39 98 3f da c6 67 3e
       0.38311267 0.14757633 1.1892443 0.2263445
0003f0 b8 2d 61 3e 78 29 91 be b6 b0 fd 3d 50 28 44 3f
       0.21990097 -0.2835195 0.123872206 0.7662401
